…
Epoch 7- Loss: 0.970253050327301, Acc: 0.8935546875, Val_loss: 1.1904603242874146, Val_acc: 0.899328887462616
Epoch 8- Loss: 0.8410682678222656, Acc: 0.8984375, Val_loss: 0.7298936247825623, Val_acc: 0.9348034262657166
Epoch 9- Loss: 0.7102281451225281, Acc: 0.9095580577850342, Val_loss: 0.7936448454856873, Val_acc: 0.9223393797874451


Test_loss: 0.87632155418396, Test_accuracy: 0.8525640964508057

Model: "sequential"
_________________________________________________________________
Layer (type)                 Output Shape              Param #   
=================================================================
rescaling (Rescaling)        (None, 540, 720, 1)       0         
_________________________________________________________________
conv2d (Conv2D)              (None, 538, 718, 32)      320       
_________________________________________________________________
max_pooling2d (MaxPooling2D) (None, 269, 359, 32)      0         
_________________________________________________________________
dropout (Dropout)            (None, 269, 359, 32)      0         
_________________________________________________________________
conv2d_1 (Conv2D)            (None, 267, 357, 32)      9248      
_________________________________________________________________
max_pooling2d_1 (MaxPooling2 (None, 133, 178, 32)      0         
_________________________________________________________________
dropout_1 (Dropout)          (None, 133, 178, 32)      0         
_________________________________________________________________
conv2d_2 (Conv2D)            (None, 131, 176, 32)      9248      
_________________________________________________________________
max_pooling2d_2 (MaxPooling2 (None, 65, 88, 32)        0         
_________________________________________________________________
dropout_2 (Dropout)          (None, 65, 88, 32)        0         
_________________________________________________________________
conv2d_3 (Conv2D)            (None, 63, 86, 32)        9248      
_________________________________________________________________
max_pooling2d_3 (MaxPooling2 (None, 31, 43, 32)        0         
_________________________________________________________________
dropout_3 (Dropout)          (None, 31, 43, 32)        0         
_________________________________________________________________
flatten (Flatten)            (None, 42656)             0         
_________________________________________________________________
dense (Dense)                (None, 512)               21840384  
_________________________________________________________________
dropout_4 (Dropout)          (None, 512)               0         
_________________________________________________________________
dense_1 (Dense)              (None, 512)               262656    
_________________________________________________________________
dropout_5 (Dropout)          (None, 512)               0         
_________________________________________________________________
dense_2 (Dense)              (None, 128)               65664     
_________________________________________________________________
dense_3 (Dense)              (None, 2)                 258       
=================================================================
Total params: 22,197,026
Trainable params: 22,197,026
Non-trainable params: 0
_________________________________________________________________
###############

###############
Run: 20200927_0058
Img_width: 720, Img_height: 540, Val_size: 52
Batch_size: 64, Activation: relu, Optimizer: adam, Regularizer: None
Epochs: 50, Steps_per_epoch: 8, Callback(s): EarlyStopping(Val_acc, 2)
…
Epoch 8- Loss: 0.08495821058750153, Acc: 0.9697265625, Val_loss: 0.13549500703811646, Val_acc: 0.9549376964569092
Epoch 9- Loss: 0.12791676819324493, Acc: 0.9588900208473206, Val_loss: 0.10334151238203049, Val_acc: 0.9626078605651855
Epoch 10- Loss: 0.09399008750915527, Acc: 0.9677734375, Val_loss: 0.08850491046905518, Val_acc: 0.9645254015922546


Test_loss: 0.9187606573104858, Test_accuracy: 0.7868589758872986

Model: "sequential"
_________________________________________________________________
Layer (type)                 Output Shape              Param #   
=================================================================
rescaling (Rescaling)        (None, 540, 720, 1)       0         
_________________________________________________________________
conv2d (Conv2D)              (None, 538, 718, 32)      320       
_________________________________________________________________
max_pooling2d (MaxPooling2D) (None, 269, 359, 32)      0         
_________________________________________________________________
conv2d_1 (Conv2D)            (None, 267, 357, 32)      9248      
_________________________________________________________________
max_pooling2d_1 (MaxPooling2 (None, 133, 178, 32)      0         
_________________________________________________________________
conv2d_2 (Conv2D)            (None, 131, 176, 32)      9248      
_________________________________________________________________
max_pooling2d_2 (MaxPooling2 (None, 65, 88, 32)        0         
_________________________________________________________________
conv2d_3 (Conv2D)            (None, 63, 86, 32)        9248      
_________________________________________________________________
max_pooling2d_3 (MaxPooling2 (None, 31, 43, 32)        0         
_________________________________________________________________
flatten (Flatten)            (None, 42656)             0         
_________________________________________________________________
dense (Dense)                (None, 512)               21840384  
_________________________________________________________________
dense_1 (Dense)              (None, 512)               262656    
_________________________________________________________________
dense_2 (Dense)              (None, 128)               65664     
_________________________________________________________________
dense_3 (Dense)              (None, 2)                 258       
=================================================================
Total params: 22,197,026
Trainable params: 22,197,026
Non-trainable params: 0
_________________________________________________________________
###############

###############
Run: 20200926_2155
Img_width: 720, Img_height: 540, Val_size: 1043
Batch_size: 64, Activation: relu, Optimizer: adam, Regularizer: None
Epochs: 50, Steps_per_epoch: 16, Callback(s): EarlyStopping(Val_acc, 2)
…
Epoch 14- Loss: 1.2311903238296509, Acc: 0.810546875, Val_loss: 1.1315473318099976, Val_acc: 0.8676893711090088
Epoch 15- Loss: 1.1267731189727783, Acc: 0.84765625, Val_loss: 1.075493335723877, Val_acc: 0.8753595352172852
Epoch 16- Loss: 1.0977706909179688, Acc: 0.8515625, Val_loss: 1.034976601600647, Val_acc: 0.8839884996414185


Test_loss: 1.5418568849563599, Test_accuracy: 0.7179487347602844

Model: "sequential"
_________________________________________________________________
Layer (type)                 Output Shape              Param #   
=================================================================
rescaling (Rescaling)        (None, 1080, 1440, 1)     0         
_________________________________________________________________
conv2d (Conv2D)              (None, 1078, 1438, 32)    320       
_________________________________________________________________
max_pooling2d (MaxPooling2D) (None, 539, 719, 32)      0         
_________________________________________________________________
conv2d_1 (Conv2D)            (None, 537, 717, 32)      9248      
_________________________________________________________________
max_pooling2d_1 (MaxPooling2 (None, 268, 358, 32)      0         
_________________________________________________________________
conv2d_2 (Conv2D)            (None, 266, 356, 32)      9248      
_________________________________________________________________
max_pooling2d_2 (MaxPooling2 (None, 133, 178, 32)      0         
_________________________________________________________________
flatten (Flatten)            (None, 757568)            0         
_________________________________________________________________
dense (Dense)                (None, 128)               96968832  
_________________________________________________________________
dropout (Dropout)            (None, 128)               0         
_________________________________________________________________
dense_1 (Dense)              (None, 128)               16512     
_________________________________________________________________
dense_2 (Dense)              (None, 2)                 258       
=================================================================
Total params: 97,004,418
Trainable params: 97,004,418
Non-trainable params: 0
_________________________________________________________________
###############

###############
Run: 20200924_2148
Img_width: 720, Img_height: 540, Val_size: 1043
Batch_size: 32, Activation: relu, Optimizer: adam, Regularizer: l2(0.01)
Epochs: 30, Steps_per_epoch: 8, Callback(s): EarlyStopping(Val_acc, 2)
…
Epoch 10- Loss: 1.2615034580230713, Acc: 0.8828125, Val_loss: 1.14201819896698, Val_acc: 0.9357622265815735
Epoch 11- Loss: 1.2112613916397095, Acc: 0.87890625, Val_loss: 1.1325300931930542, Val_acc: 0.9098753333091736
Epoch 12- Loss: 1.1216261386871338, Acc: 0.8984375, Val_loss: 1.0418345928192139, Val_acc: 0.9213806390762329


Test_loss: 1.4261504411697388, Test_accuracy: 0.7884615659713745

Model: "sequential"
_________________________________________________________________
Layer (type)                 Output Shape              Param #   
=================================================================
rescaling (Rescaling)        (None, 540, 720, 1)       0         
_________________________________________________________________
conv2d (Conv2D)              (None, 538, 718, 32)      320       
_________________________________________________________________
max_pooling2d (MaxPooling2D) (None, 269, 359, 32)      0         
_________________________________________________________________
conv2d_1 (Conv2D)            (None, 267, 357, 32)      9248      
_________________________________________________________________
max_pooling2d_1 (MaxPooling2 (None, 133, 178, 32)      0         
_________________________________________________________________
conv2d_2 (Conv2D)            (None, 131, 176, 32)      9248      
_________________________________________________________________
max_pooling2d_2 (MaxPooling2 (None, 65, 88, 32)        0         
_________________________________________________________________
flatten (Flatten)            (None, 183040)            0         
_________________________________________________________________
dense (Dense)                (None, 128)               23429248  
_________________________________________________________________
dropout (Dropout)            (None, 128)               0         
_________________________________________________________________
dense_1 (Dense)              (None, 128)               16512     
_________________________________________________________________
dense_2 (Dense)              (None, 2)                 258       
=================================================================
Total params: 23,464,834
Trainable params: 23,464,834
Non-trainable params: 0
_________________________________________________________________
###############

###############
Run: 20200924_2116
Img_width: 720, Img_height: 540, Val_size: 1043
Batch_size: 32, Activation: relu, Optimizer: adam, Regularizer: l2(0.001)
Epochs: 30, Steps_per_epoch: 8, Callback(s): EarlyStopping(Val_acc, 3)
…
Epoch 5- Loss: 0.6412555575370789, Acc: 0.86328125, Val_loss: 0.5660465955734253, Val_acc: 0.9185042977333069
Epoch 6- Loss: 0.5643310546875, Acc: 0.90625, Val_loss: 0.5326938033103943, Val_acc: 0.9050815105438232
Epoch 7- Loss: 0.5812000036239624, Acc: 0.875, Val_loss: 0.5270802974700928, Val_acc: 0.9185042977333069


Test_loss: 1.3900820016860962, Test_accuracy: 0.7323718070983887

Model: "sequential"
_________________________________________________________________
Layer (type)                 Output Shape              Param #   
=================================================================
rescaling (Rescaling)        (None, 480, 720, 1)       0         
_________________________________________________________________
conv2d (Conv2D)              (None, 478, 718, 32)      320       
_________________________________________________________________
max_pooling2d (MaxPooling2D) (None, 239, 359, 32)      0         
_________________________________________________________________
conv2d_1 (Conv2D)            (None, 237, 357, 32)      9248      
_________________________________________________________________
max_pooling2d_1 (MaxPooling2 (None, 118, 178, 32)      0         
_________________________________________________________________
conv2d_2 (Conv2D)            (None, 116, 176, 32)      9248      
_________________________________________________________________
max_pooling2d_2 (MaxPooling2 (None, 58, 88, 32)        0         
_________________________________________________________________
flatten (Flatten)            (None, 163328)            0         
_________________________________________________________________
dense (Dense)                (None, 128)               20906112  
_________________________________________________________________
dropout (Dropout)            (None, 128)               0         
_________________________________________________________________
dense_1 (Dense)              (None, 128)               16512     
_________________________________________________________________
dense_2 (Dense)              (None, 2)                 258       
=================================================================
Total params: 20,941,698
Trainable params: 20,941,698
Non-trainable params: 0
_________________________________________________________________
###############

###############
Run: 20200924_2051
Img_width: 720, Img_height: 480, Val_size: 1043
Batch_size: 32, Activation: relu, Optimizer: adam, Regularizer: l2(0.001)
Epochs: 10, Steps_per_epoch: 8, Callback(s): None
…
Epoch 8- Loss: 0.2707567512989044, Acc: 0.8984375, Val_loss: 0.21941591799259186, Val_acc: 0.9089165925979614
Epoch 9- Loss: 0.2207191437482834, Acc: 0.91796875, Val_loss: 0.1862548589706421, Val_acc: 0.9213806390762329
Epoch 10- Loss: 0.19069258868694305, Acc: 0.91015625, Val_loss: 0.20230044424533844, Val_acc: 0.9185042977333069


Test_loss: 1.116245985031128, Test_accuracy: 0.7403846383094788

Model: "sequential"
_________________________________________________________________
Layer (type)                 Output Shape              Param #   
=================================================================
rescaling (Rescaling)        (None, 480, 720, 1)       0         
_________________________________________________________________
conv2d (Conv2D)              (None, 478, 718, 32)      320       
_________________________________________________________________
max_pooling2d (MaxPooling2D) (None, 239, 359, 32)      0         
_________________________________________________________________
conv2d_1 (Conv2D)            (None, 237, 357, 32)      9248      
_________________________________________________________________
max_pooling2d_1 (MaxPooling2 (None, 118, 178, 32)      0         
_________________________________________________________________
conv2d_2 (Conv2D)            (None, 116, 176, 32)      9248      
_________________________________________________________________
max_pooling2d_2 (MaxPooling2 (None, 58, 88, 32)        0         
_________________________________________________________________
flatten (Flatten)            (None, 163328)            0         
_________________________________________________________________
dense (Dense)                (None, 128)               20906112  
_________________________________________________________________
dense_1 (Dense)              (None, 128)               16512     
_________________________________________________________________
dense_2 (Dense)              (None, 2)                 258       
=================================================================
Total params: 20,941,698
Trainable params: 20,941,698
Non-trainable params: 0
_________________________________________________________________
###############

###############
Run: 20200924_2019
Img_width: 720, Img_height: 480, Val_size: 1043
Batch_size: 32, Activation: relu, Optimizer: adam
Epochs: 10, Steps_per_epoch: 8, Callback(s): None
…
Epoch 8- Loss: 0.13355949521064758, Acc: 0.94140625, Val_loss: 0.16133928298950195, Val_acc: 0.9328858852386475
Epoch 9- Loss: 0.13349205255508423, Acc: 0.9453125, Val_loss: 0.18595600128173828, Val_acc: 0.9156280159950256
Epoch 10- Loss: 0.18719162046909332, Acc: 0.9140625, Val_loss: 0.15667109191417694, Val_acc: 0.9271332621574402


Test_loss: 0.710027277469635, Test_accuracy: 0.7884615659713745

Model: "sequential"
_________________________________________________________________
Layer (type)                 Output Shape              Param #   
=================================================================
rescaling (Rescaling)        (None, 360, 480, 1)       0         
_________________________________________________________________
conv2d (Conv2D)              (None, 358, 478, 32)      320       
_________________________________________________________________
max_pooling2d (MaxPooling2D) (None, 179, 239, 32)      0         
_________________________________________________________________
conv2d_1 (Conv2D)            (None, 177, 237, 32)      9248      
_________________________________________________________________
max_pooling2d_1 (MaxPooling2 (None, 88, 118, 32)       0         
_________________________________________________________________
conv2d_2 (Conv2D)            (None, 86, 116, 32)       9248      
_________________________________________________________________
max_pooling2d_2 (MaxPooling2 (None, 43, 58, 32)        0         
_________________________________________________________________
flatten (Flatten)            (None, 79808)             0         
_________________________________________________________________
dense (Dense)                (None, 128)               10215552  
_________________________________________________________________
dense_1 (Dense)              (None, 128)               16512     
_________________________________________________________________
dense_2 (Dense)              (None, 2)                 258       
=================================================================
Total params: 10,251,138
Trainable params: 10,251,138
Non-trainable params: 0
_________________________________________________________________
###############

###############
Run: 20200924_1952
Img_width: 480, Img_height: 360, Val_size: 1043
Batch_size: 32, Activation: relu, Optimizer: adam
Epochs: 20, Steps_per_epoch: 16, Callback(s): None
…
Epoch 1- Loss: 92.6655502319336, Acc: 0.6953125, Val_loss: 0.6000514626502991, Val_acc: 0.8638542890548706
Epoch 2- Loss: 0.986804187297821, Acc: 0.84765625, Val_loss: 0.5255776643753052, Val_acc: 0.8839884996414185
Epoch 3- Loss: 0.2850782871246338, Acc: 0.9140625, Val_loss: 0.37508782744407654, Val_acc: 0.8791946172714233


Test_loss: 1.450036883354187, Test_accuracy: 0.7083333134651184

Model: "sequential"
_________________________________________________________________
Layer (type)                 Output Shape              Param #   
=================================================================
conv2d (Conv2D)              (None, 358, 478, 32)      320       
_________________________________________________________________
max_pooling2d (MaxPooling2D) (None, 179, 239, 32)      0         
_________________________________________________________________
conv2d_1 (Conv2D)            (None, 177, 237, 32)      9248      
_________________________________________________________________
max_pooling2d_1 (MaxPooling2 (None, 88, 118, 32)       0         
_________________________________________________________________
conv2d_2 (Conv2D)            (None, 86, 116, 32)       9248      
_________________________________________________________________
max_pooling2d_2 (MaxPooling2 (None, 43, 58, 32)        0         
_________________________________________________________________
flatten (Flatten)            (None, 79808)             0         
_________________________________________________________________
dense (Dense)                (None, 128)               10215552  
_________________________________________________________________
dense_1 (Dense)              (None, 128)               16512     
_________________________________________________________________
dense_2 (Dense)              (None, 2)                 258       
=================================================================
Total params: 10,251,138
Trainable params: 10,251,138
Non-trainable params: 0
_________________________________________________________________
###############

###############
Run: 20200924_1926
Img_width: 480, Img_height: 360, Val_size: 1043
Batch_size: 32, Activation: relu, Optimizer: adam
Epochs: 5, Steps_per_epoch: 8, Callback(s): None
…
Batch_size: 32, Activation: relu, Optimizer: adam
Epochs: 2, Steps_per_epoch: 8, Callback(s): None

Epoch 1- Loss: 8.419536590576172, Acc: 0.5390625, Val_loss: 0.7299488186836243, Val_acc: 0.744966447353363
Epoch 2- Loss: 0.5474145412445068, Acc: 0.71875, Val_loss: 0.38581323623657227, Val_acc: 0.8044103384017944

Test_loss: 0.6605096459388733, Test_accuracy: 0.6410256624221802

Model: "sequential"
_________________________________________________________________
Layer (type)                 Output Shape              Param #   
=================================================================
rescaling (Rescaling)        (None, 1080, 1440, 1)     0         
_________________________________________________________________
conv2d (Conv2D)              (None, 1078, 1438, 32)    320       
_________________________________________________________________
max_pooling2d (MaxPooling2D) (None, 539, 719, 32)      0         
_________________________________________________________________
conv2d_1 (Conv2D)            (None, 537, 717, 32)      9248      
_________________________________________________________________
max_pooling2d_1 (MaxPooling2 (None, 268, 358, 32)      0         
_________________________________________________________________
conv2d_2 (Conv2D)            (None, 266, 356, 32)      9248      
_________________________________________________________________
max_pooling2d_2 (MaxPooling2 (None, 133, 178, 32)      0         
_________________________________________________________________
flatten (Flatten)            (None, 757568)            0         
_________________________________________________________________
dense (Dense)                (None, 128)               96968832  
_________________________________________________________________
dense_1 (Dense)              (None, 128)               16512     
_________________________________________________________________
dense_2 (Dense)              (None, 2)                 258       
=================================================================
Total params: 97,004,418
Trainable params: 97,004,418
Non-trainable params: 0
_________________________________________________________________
###############

